…
.8, warmup_bias_lr=0.1, box=7.5, cls=0.5, dfl=1.5, pose=12.0, kobj=1.0, label_smoothing=0.0, nbs=64, hsv_h=0.015, hsv_s=0.7, hsv_v=0.4, degrees=0.0, translate=0.1, scale=0.5, shear=0.0, perspective=0.0, flipud=0.0, fliplr=0.5, bgr=0.0, mosaic=1.0, mixup=0.0, copy_paste=0.0, auto_augment=randaugment, erasing=0.4, crop_fraction=1.0, cfg=None, tracker=botsort.yaml, save_dir=runs/detect/train2\nOverriding model.yaml nc=80 with nc=1\n\n                   from  n    params  module                                       arguments                     \n  0                  -1  1      2320  ultralytics.nn.modules.conv.Conv             [3, 80, 3, 2]                 \n  1                  -1  1    115520  ultralytics.nn.modules.conv.Conv             [80, 160, 3, 2]               \n  2                  -1  3    436800  ultralytics.nn.modules.block.C2f             [160, 160, 3, True]           \n  3                  -1  1    461440  ultralytics.nn.modules.conv.Conv             [160, 320, 3, 2]              \n  4                  -1  6   3281920  ultralytics.nn.modules.block.C2f             [320, 320, 6, True]           \n  5                  -1  1   1844480  ultralytics.nn.modules.conv.Conv             [320, 640, 3, 2]              \n  6                  -1  6  13117440  ultralytics.nn.modules.block.C2f             [640, 640, 6, True]           \n  7                  -1  1   3687680  ultralytics.nn.modules.conv.Conv             [640, 640, 3, 2]              \n  8                  -1  3   6969600  ultralytics.nn.modules.block.C2f             [640, 640, 3, True]           \n  9                  -1  1   1025920  ultralytics.nn.modules.block.SPPF            [640, 640, 5]                 \n 10                  -1  1         0  torch.nn.modules.upsampling.Upsample         [None, 2, 'nearest']          \n 11             [-1, 6]  1         0  ultralytics.nn.modules.conv.Concat           [1]                           \n 12                  -1  3   7379200  ultralytics.nn.modules.block.C2f             [1280, 640, 3]                \n 13                  -1  1         0  torch.nn.modules.upsampling.Upsample         [None, 2, 'nearest']          \n 14             [-1, 4]  1         0  ultralytics.nn.modules.conv.Concat           [1]                           \n 15                  -1  3   1948800  ultralytics.nn.modules.block.C2f             [960, 320, 3]                 \n 16                  -1  1    922240  ultralytics.nn.modules.conv.Conv             [320, 320, 3, 2]              \n 17            [-1, 12]  1         0  ultralytics.nn.modules.conv.Concat           [1]                           \n 18                  -1  3   7174400  ultralytics.nn.modules.block.C2f             [960, 640, 3]                 \n 19                  -1  1   3687680  ultralytics.nn.modules.conv.Conv             [640, 640, 3, 2]              \n 20             [-1, 9]  1         0  ultralytics.nn.modules.conv.Concat           [1]                           \n 21                  -1  3   7379200  ultralytics.nn.modules.block.C2f             [1280, 640, 3]                \n 22        [15, 18, 21]  1   8718931  ultralytics.nn.modules.head.Detect           [1, [320, 640, 640]]          \nModel summary: 365 layers, 68,153,571 parameters, 68,153,555 gradients, 258.1 GFLOPs\n\nTransferred 589/595 items from pretrained weights\n\u001b[34m\u001b[1mTensorBoard: \u001b[0mStart with 'tensorboard --logdir runs/detect/train2', view at http://localhost:6006/\nFreezing layer 'model.22.dfl.conv.weight'\n\u001b[34m\u001b[1mAMP: \u001b[0mrunning Automatic Mixed Pre
…
